…
          tf.keras.layers.Dense(units=1, activation='sigmoid')\n","                                    ])\n","\n","\n","model.compile(optimizer=optimizer,\n","              loss='binary_crossentropy',\n","              metrics=['accuracy'])\n","\n","model.summary()"],"execution_count":null,"outputs":[{"output_type":"stream","text":["Model: \"sequential\"\n","_________________________________________________________________\n","Layer (type)                 Output Shape              Param #   \n","=================================================================\n","conv2d (Conv2D)              (None, 150, 150, 32)      896       \n","_________________________________________________________________\n","max_pooling2d (MaxPooling2D) (None, 75, 75, 32)        0         \n","_________________________________________________________________\n","batch_normalization (BatchNo (None, 75, 75, 32)        128       \n","_________________________________________________________________\n","conv2d_1 (Conv2D)            (None, 75, 75, 64)        18496     \n","_________________________________________________________________\n","max_pooling2d_1 (MaxPooling2 (None, 37, 37, 64)        0         \n","_________________________________________________________________\n","spatial_dropout2d (SpatialDr (None, 37, 37, 64)        0         \n","_________________________________________________________________\n","conv2d_2 (Conv2D)            (None, 37, 37, 128)       73856     \n","_________________________________________________________________\n","max_pooling2d_2 (MaxPooling2 (None, 18, 18, 128)       0         \n","_________________________________________________________________\n","batch_normalization_1 (Batch (None, 18, 18, 128)       512       \n","_________________________________________________________________\n","conv2d_3 (Conv2D)            (None, 18, 18, 256)       295168    \n","_________________________________________________________________\n","max_pooling2d_3 (MaxPooling2 (None, 9, 9, 256)         0         \n","_________________________________________________________________\n","spatial_dropout2d_1 (Spatial (None, 9, 9, 256)         0         \n","_________________________________________________________________\n","conv2d_4 (Conv2D)            (None, 9, 9, 512)         1180160   \n","_________________________________________________________________\n","max_pooling2d_4 (MaxPooling2 (None, 4, 4, 512)         0         \n","_________________________________________________________________\n","batch_normalization_2 (Batch (None, 4, 4, 512)         2048      \n","_________________________________________________________________\n","global_max_pooling2d (Global (None, 512)               0         \n","_________________________________________________________________\n","dense (Dense)                (None, 128)               65664     \n","_________________________________________________________________\n","dense_1 (Dense)              (None, 1)                 129       \n","=================================================================\n","Total params: 1,637,057\n","Trainable params: 1,635,713\n","Non-trainable params: 1,344\n","_________________________________________________________________\n"],"name":"stdout"}]},{"cell_type":"code","metadata":{"colab":{"base_uri":"https://localhost:8080/"},"id":"ePh8dYGnyOud","executionInfo":{"status":"ok","timest
…
          tf.keras.layers.Dense(units=1, activation='sigmoid')\n","                                    ])\n","\n","\n","model.compile(optimizer=optimizer,\n","              loss='binary_crossentropy',\n","              metrics=['accuracy'])\n","\n","model.summary()"],"execution_count":null,"outputs":[{"output_type":"stream","text":["Model: \"sequential\"\n","_________________________________________________________________\n","Layer (type)                 Output Shape              Param #   \n","=================================================================\n","conv2d (Conv2D)              (None, 150, 150, 32)      896       \n","_________________________________________________________________\n","max_pooling2d (MaxPooling2D) (None, 75, 75, 32)        0         \n","_________________________________________________________________\n","layer_normalization (LayerNo (None, 75, 75, 32)        64        \n","_________________________________________________________________\n","conv2d_1 (Conv2D)            (None, 75, 75, 64)        18496     \n","_________________________________________________________________\n","max_pooling2d_1 (MaxPooling2 (None, 37, 37, 64)        0         \n","_________________________________________________________________\n","spatial_dropout2d (SpatialDr (None, 37, 37, 64)        0         \n","_________________________________________________________________\n","conv2d_2 (Conv2D)            (None, 37, 37, 128)       73856     \n","_________________________________________________________________\n","max_pooling2d_2 (MaxPooling2 (None, 18, 18, 128)       0         \n","_________________________________________________________________\n","layer_normalization_1 (Layer (None, 18, 18, 128)       256       \n","_________________________________________________________________\n","conv2d_3 (Conv2D)            (None, 18, 18, 256)       295168    \n","_________________________________________________________________\n","max_pooling2d_3 (MaxPooling2 (None, 9, 9, 256)         0         \n","_________________________________________________________________\n","spatial_dropout2d_1 (Spatial (None, 9, 9, 256)         0         \n","_________________________________________________________________\n","conv2d_4 (Conv2D)            (None, 9, 9, 512)         1180160   \n","_________________________________________________________________\n","max_pooling2d_4 (MaxPooling2 (None, 4, 4, 512)         0         \n","_________________________________________________________________\n","layer_normalization_2 (Layer (None, 4, 4, 512)         1024      \n","_________________________________________________________________\n","global_max_pooling2d (Global (None, 512)               0         \n","_________________________________________________________________\n","dense (Dense)                (None, 128)               65664     \n","_________________________________________________________________\n","dense_1 (Dense)              (None, 1)                 129       \n","=================================================================\n","Total params: 1,635,713\n","Trainable params: 1,635,713\n","Non-trainable params: 0\n","_________________________________________________________________\n"],"name":"stdout"}]},{"cell_type":"code","metadata":{"colab":{"base_uri":"https://localhost:8080/"},"id":"EnBPuh5iyOw_","executionInfo":{"status":"ok","timestamp"
…
